dqn/exercise/checkpoint.pth (torch, 22303 bytes, 6 tensors)

fc1.weight f4 [64, 8]
0	0x3d30072f	0.0429756
1	0xbdd348b6	-0.10316603
2	0xbe5a55bf	-0.21321772
3	0xbeb259b7	-0.34834072
4	0x3e8f0cb5	0.27939382
5	0x3dd43272	0.10361184
6	0x3e5ac2ae	0.21363327
7	0x3ef62833	0.48077545
8	0x3f4700a5	0.7773536
9	0xbedf80e1	-0.43653014
10	0xba04d99e	-0.0005067828
11	0xbebdd7cd	-0.37078705
12	0xbf139fe2	-0.57665837
13	0xbeef8439	-0.46780565
14	0xbe48ab07	-0.19596492
15	0x3e553f31	0.20824887
16	0x3f028aaa	0.50992835
17	0x3f36c04f	0.7138719
18	0xbdd7a698	-0.10529822
19	0xbf350f2f	-0.70726293
20	0xbe81cf37	-0.25353405
21	0x3f54ef5f	0.8317775
22	0x3d91a842	0.07112171
23	0xbe190f4b	-0.1494724
24	0x3f5411e0	0.82839775
25	0xbea1831a	-0.31545335
26	0x3f284a37	0.6573824
27	0x3e712d2a	0.23552385
28	0xbf8c4c55	-1.0960795
29	0xbeb2d895	-0.34930864
30	0xbbeb9ddf	-0.0071904506
31	0x3ebfbc83	0.3744851
32	0xbf1013a0	-0.56279945
33	0xbf34ef9b	-0.7067811
34	0xbf651570	-0.89485836
35	0xbe79573e	-0.24349687
36	0x3ee9d759	0.4567211
37	0x3f16047c	0.5860059
38	0x3e447160	0.19183874
39	0x3e8ef132	0.27918392
40	0x3f154a79	0.5831676
41	0x3d45d485	0.048298378
42	0x3dd08c4d	0.1018301
43	0x3dd4217e	0.10357951
44	0xbf8b2596	-1.0870845
45	0xbeeb6945	-0.45978752
46	0x3eda290b	0.42609438
47	0x3e27ebce	0.16398546
48	0xbe227583	-0.1586514
49	0x3f1f6d7a	0.6227642
50	0x3e5d1142	0.21588615
51	0x3e051727	0.12997113
52	0x3e81bd6b	0.25339827
53	0x3ebde86f	0.37091395
54	0x3dd6921f	0.10477089
55	0xbe389b94	-0.18028098
56	0x3ed88b3e	0.42293733
57	0xbf1f1c08	-0.6215215
58	0xbf187e6f	-0.5956792
59	0xbf927e46	-1.1444786
60	0x3fe68c00	1.8011475
61	0x3eace282	0.33766562
62	0xbd89dcce	-0.06731568
63	0x3e503ac0	0.20334911
64	0x3e40fe13	0.18846922
65	0x3d3530d2	0.04423601
66	0x3ed2f064	0.41199028
67	0xbe76822d	-0.24073096
68	0x3f48bf3b	0.78416795
69	0x3ecef3cb	0.40420374
70	0xbe417da4	-0.18895584
71	0xbf6a2e6c	-0.91477084
72	0x3f1500ce	0.5820435
73	0x3f444a58	0.7667594
74	0xbd8b5def	-0.06805026
75	0x3fc5de4d	1.5458466
76	0x3f2ab67b	0.66684693
77	0x3ba0ee4b	0.0049112192
78	0xbe7ca4c8	-0.24672234
79	0xbe762200	-0.24036407
80	0xbe6e8432	-0.23292616
81	0x3f3b1330	0.7307615
82	0x3f52805e	0.8222712
83	0xbfb37b67	-1.4022034
84	0xbe7c5c81	-0.24644662
85	0x3e70f41f	0.23530625
86	0xbd6bff59	-0.057616565
87	0xbd476256	-0.048677765
88	0xbc351cfb	-0.011054273
89	0xbc69899f	-0.014254003
90	0xbe9f53fd	-0.31118765
91	0xbe40c494	-0.18824989
92	0x3ed3cf9c	0.4136933
93	0x3f46d7c7	0.77673
94	0x3e8d8292	0.2763868
95	0xbf74e3cc	-0.9566009
96	0xbf1b4cc3	-0.60664004
97	0xbecfb14a	-0.40564948
98	0x3d0a254f	0.033726986
99	0xbf09b38e	-0.53789604
100	0x3f535a0f	0.82559294
101	0x3f19c108	0.6006017
102	0x3e94cc8b	0.29062304
103	0xbe0b1290	-0.135813
104	0xbef75a20	-0.48310947
105	0xbf1edecb	-0.62058705
106	0xbf182799	-0.5943542
107	0xbf182c3d	-0.594425
108	0x3e699cf2	0.22813776
109	0x3e8f15a5	0.279462
110	0xbdd3426f	-0.103154056
111	0x3e875ac9	0.2643645
112	0xbe8aa242	-0.27076918
113	0x3ef5aaec	0.47981966
114	0x3f3b65ef	0.73202413
115	0xbf9f5ec7	-1.2450799
116	0xbf0e57b5	-0.5560258
117	0x3ebb3480	0.36563492
118	0x3e9334ee	0.2875132
119	0x3e2fe43d	0.1717691
120	0x3f5a14ad	0.851878
121	0xbdc2bcd8	-0.09508675
122	0x3efa739a	0.48916322
123	0x3debdcad	0.115167
124	0x3e0b54fd	0.13606639
125	0x3b01aa95	0.0019785513
126	0xbf00eae3	-0.5035841
127	0xbf6c1a5b	-0.92227715
128	0xbee99e6e	-0.45628685
129	0xbf3da05d	-0.7407282
130	0xbf7a75de	-0.978361
131	0xbe56b19f	-0.20966195
132	0xbe6ddb92	-0.2322829
133	0x3ce146d3	0.027499592
134	0x3e20e1ab	0.15711085
135	0xbf20b9e4	-0.62783647
136	0xbe624241	-0.22095586
137	0x3e4ec160	0.20190954
138	0x3e35827d	0.17725559
139	0x3e5a1261	0.21296073
140	0xbd686bee	-0.056743555
141	0x3e96980b	0.29412875
142	0x3f37bebb	0.71775407
143	0xbd2dea4c	-0.04245977
144	0x3d3e1ddf	0.046415206
145	0xbea50b29	-0.32235077
146	0xbd53a2b6	-0.051668845
147	0x3db47b51	0.08812583
148	0x3dfeff6a	0.1245106
149	0xbf538eac	-0.82639575
150	0xbf04ba8f	-0.51847166
151	0xbf0ce377	-0.55034584
152	0x3e0a3709	0.13497557
153	0x3eca1499	0.3946884
154	0x3fc2ac63	1.5208858
155	0xc00dc0a4	-2.2148829
156	0xbee7ba11	-0.45259145
157	0xbd660f2f	-0.056166824
158	0xbe0ece46	-0.13945875
159	0xbd9d9aac	-0.07695517
160	0xbd996433	-0.074898146
161	0xbf3ac8aa	-0.7296244
162	0xbedfa296	-0.4367873
163	0xbf6a80a4	-0.9160254
164	0x3f13d43f	0.57745737
165	0x3e7e437d	0.24830432
166	0xbed6d28d	-0.41957512
167	0xbe50f97f	-0.20407675
168	0xbf16abaa	-0.5885569
169	0xbf065088	-0.5246663
170	0x3c69f230	0.014278933
171	0xbf696d7f	-0.911827
172	0x3f1d3ef1	0.61424166
173	0x3ef4f820	0.47845554
174	0x3e0186a0	0.12649012
175	0x3e675ddd	0.225944
176	0xbdcc40aa	-0.09973271
177	0xbdce4a79	-0.10072798
178	0x3e798f56	0.24371085
179	0xbf1e4655	-0.6182607
180	0xbf067fb8	-0.52538633
181	0xbde0eb92	-0.109824315
182	0x3ee1236f	0.43972346
183	0x3e8668bf	0.2625179
184	0x3ebcea5c	0.36897552
185	0xbe50e7fc	-0.20400995
186	0x3ee5c2b0	0.44875097
187	0xbe494831	-0.19656445
188	0xbee36055	-0.44409433
189	0xbd61baa9	-0.055109654
190	0x3f00a1b8	0.50246763
191	0x3ed8d70e	0.42351574
192	0xbf0305b6	-0.5118059
193	0xbf1fb9e7	-0.6239304
194	0xbf0609be	-0.52358615
195	0xbf300eeb	-0.68772763
196	0xbecebaa3	-0.40376768
197	0x3badf1ac	0.0053083505
198	0x3cdbdf1c	0.026839785
199	0x3e3af0e8	0.18255961
200	0xbea77c5a	-0.3271206
201	0xbe202402	-0.15638736
202	0xbf4f5283	-0.8098528
203	0x3e3dd4d4	0.18538219
204	0x3ef34f0a	0.4752124
205	0x3ea0745f	0.31338784
206	0x3b04ef49	0.0020284227
207	0x3ed43b53	0.4145151
208	0x3d939ddd	0.072078444
209	0xbed9e512	-0.4255758
210	0xbe01826d	-0.1264741
211	0xbe8a1667	-0.26970217
212	0xbf27ecfc	-0.65595984
213	0xbd80b14b	-0.06283816
214	0x3e867c5e	0.2626676
215	0xbec236e2	-0.37932497
216	0xbec091a8	-0.37611127
217	0xbf3d1a53	-0.7386829
218	0x3eb8d208	0.3609774
219	0xbf75bc37	-0.9599032
220	0x3cf13616	0.029444735
221	0xbc834411	-0.016023668
222	0x3ece6f1b	0.40319142
223	0xbf097b4c	-0.5370376
224	0x3f19500c	0.59887767
225	0xbf8b2cb3	-1.0873016
226	0xbff5366d	-1.9157234
227	0x3efd0bc4	0.4942304
228	0x3f207dd0	0.62691975
229	0xbf333edd	-0.70017797
230	0x3f4738ef	0.7782125
231	0x3ec89b75	0.39181104
232	0x3f51f3a3	0.82012385
233	0xbe0aa735	-0.13540347
234	0x3eb5cd8c	0.35508382
235	0x3e20a3ea	0.15687528
236	0x3eaa8a22	0.33308512
237	0xbf14e1cc	-0.5815704
238	0xbf6a844d	-0.91608125
239	0x3eb25843	0.34832963
240	0xbe65381e	-0.22384688
241	0x3dae6cd2	0.085168496
242	0x3f7fc0c2	0.999035
243	0xbf013770	-0.50475216
244	0x3f9f7c97	1.2459897
245	0xbf2e0a9b	-0.6798493
246	0x3e9c4f2f	0.30529162
247	0xbf1fc51d	-0.62410146
248	0x3d723521	0.0591327
249	0xbd68061b	-0.056646448
250	0xbd93ecf6	-0.07222931
251	0xbeb0767f	-0.34465405
252	0x400a5a57	2.161764
253	0x3ecc80ce	0.3994202
254	0xbf55ef86	-0.8356861
255	0xbd7f5528	-0.06233707

fc1.bias f4 [64]
0	0xbe0cc849	-0.13748278
1	0xbebeb049	-0.3724387
2	0x3ece91b8	0.4034555
3	0xbee0f766	-0.4393875
4	0xbece5576	-0.40299577
5	0xbeaa276d	-0.33233204
6	0x3f6c0519	0.9219528
7	0x3d34eca0	0.044170976
8	0x3e86f0a2	0.26355463
9	0x3eb04124	0.34424698
10	0x3f3cb8d7	0.73719543
11	0xbe9a3863	-0.30121145
12	0xbefe4fc2	-0.49670225
13	0xbeff75e9	-0.49894646
14	0x3f2f556b	0.6848971
15	0x3d62a07d	0.055328835
16	0xbe55f7ce	-0.20895311
17	0xbea71382	-0.3263207
18	0x3ef12dc7	0.47105238
19	0x3eec5c09	0.46163967
20	0xbea48fe7	-0.3214104
21	0xbeb888de	-0.3604192
22	0xbe9e4908	-0.30915093
23	0xbe251f42	-0.16125205
24	0xbeeeffd1	-0.46679547
25	0xbeca2419	-0.39480665
26	0xbf1eba40	-0.62002945
27	0xbf011512	-0.50422776
28	0x3e4d8898	0.20071638
29	0xbf00481d	-0.50110036
30	0xbdc253d2	-0.09488644
31	0x3cea8473	0.02862761
32	0x3d29df80	0.04147291
33	0x3e565a4c	0.20932883
34	0xbf3c43c2	-0.7354089
35	0x3e3bc481	0.18336679
36	0x3e578163	0.21045451
37	0x3ce1bc93	0.02755574
38	0xbeabbe97	-0.33543846
39	0xbeb1c6d0	-0.34721994
40	0x3e5dad1b	0.21648066
41	0xbea0f4a3	-0.31436643
42	0x3eb478be	0.3524837
43	0xbc53a54e	-0.01291783
44	0x3de4ba51	0.111683495
45	0x3d876cd4	0.06612554
46	0x3ea29205	0.3175203
47	0x3ea933b9	0.33047274
48	0x3c15cd6a	0.009143213
49	0xbf10b74c	-0.5652969
50	0xbe87c1af	-0.26514956
51	0x3f10b8bf	0.565319
52	0xbe99061d	-0.29887477
53	0x3e6e6729	0.2328154
54	0xbe7406c2	-0.23830703
55	0xbd332c3a	-0.04374335
56	0x3da3d06c	0.07998738
57	0x3f146d2a	0.5797907
58	0xbd5ea240	-0.054353952
59	0xbe982c9c	-0.29721534
60	0xbe174708	-0.1477319
61	0xbd0a09df	-0.03370082
62	0x3ed5c628	0.41752744
63	0x3e2d8dfe	0.16948697

fc2.weight f4 [64, 64]
0	0x3c0193d0	0.007908776
1	0x3eb9984f	0.36249015
2	0x3e20ea9d	0.15714498
3	0x3f73ab78	0.95183516
4	0x3b5bc1b0	0.0033532195
5	0x3efc242e	0.49246353
6	0xbd31e185	-0.043427963
7	0xbf241c94	-0.64106107
8	0x3e709591	0.23494555
9	0x3eeb2b1e	0.45931333
10	0x3e2f2dba	0.17107287
11	0x3f23b289	0.639443
12	0x3ebe9f66	0.37230986
13	0x3eab4a93	0.33455333
14	0x3e0f5249	0.13996233
15	0x3e79cf3b	0.24395458
16	0x3d133a0f	0.03594404
17	0x3e93aa32	0.28840786
18	0x3e9d6b72	0.30746037
19	0x3e80c6ca	0.25151664
20	0x3ea44bf7	0.32089207
21	0x3ec18a80	0.3780098
22	0x3ed4fa49	0.41597202
23	0x3ea90b8b	0.3301662
24	0xbdcf7d9f	-0.10131382
25	0x3d6fcb7f	0.05854368
26	0x3f26b56e	0.6512059
27	0x3f94cc58	1.1624861
28	0xbe90b7bc	-0.28265178
29	0x3f5abb96	0.85442483
30	0xbf1a0aa8	-0.6017251
31	0xbf8b13e0	-1.086544
32	0xbeaa7d47	-0.33298704
33	0xbe14e9c2	-0.14542297
34	0x3d501a54	0.05080636
35	0xbe21c843	-0.1579905
36	0x3f632f28	0.8874383
37	0x3f3b0378	0.7305217
38	0x3d359d30	0.04433936
39	0x3f68f4ec	0.9099872
40	0xbda5d416	-0.08097093
41	0x3ecfc3d6	0.40579098
42	0x3f1372f5	0.57597286
43	0xbec63499	-0.38712004
44	0xbd845d5f	-0.064631216
45	0x3ed31536	0.4122712
46	0x3f078170	0.5293188
47	0x3e25974c	0.16170996
48	0xbe9f0631	-0.3105941
49	0x3d7e2a5b	0.062052112
50	0x3e93624e	0.28785938
51	0x3e0b4539	0.13600625
52	0x3ea78504	0.3271867
53	0xbf727066	-0.94702756
54	0xbf17b12e	-0.5925473
55	0x3f0a9c4c	0.5414474
56	0xbeff09b7	-0.498121
57	0x3d4a7018	0.049423307
58	0x3e17ef3d	0.14837356
59	0x3f2734dc	0.6531503
60	0xbe53adfc	-0.20671839
61	0xbdceb394	-0.100928456
62	0xbebea53e	-0.37235445
63	0x3db66d34	0.089075476
64	0xbd8a1fbc	-0.06744334
65	0x3ef4f74e	0.47844929
66	0x3e29ca35	0.16581042
67	0x3f44eb27	0.76921314
68	0xbd5a3cd6	-0.053280674
69	0x3f1e7812	0.6190196
70	0xbc28b174	-0.010296214
71	0xbf077799	-0.52916867
72	0x3e2191df	0.15778302
73	0x3f0ecc0b	0.55780095
74	0x3ea632df	0.32460687
75	0x3f0a8ac8	0.54118013
76	0x3eb8fa0a	0.36128265
77	0x3e8e7135	0.27820745
78	0x3df8e474	0.12152949
79	0x3ed7d433	0.42154083
80	0x3eb3f831	0.35150293
81	0x3e711b2f	0.23545526
82	0x3dafa419	0.08576221
83	0x3eaace08	0.33360314
84	0x3db4c200	0.08826065
85	0x3e896eba	0.2684229
86	0x3ec428fe	0.38312525
87	0x3cdc88c3	0.026920682
88	0x3e1b794e	0.15182993
89	0x3e31e435	0.1737221
90	0x3f4906fc	0.7852628
91	0x3f84812e	1.0351923
92	0xbe5d52ec	-0.21613663
93	0x3f65a128	0.8969903
94	0xbf39a0dd	-0.7251108
95	0xbf633a46	-0.88760793
96	0xbe9c2d95	-0.30503526
97	0xbcf25af0	-0.029584378
98	0x3ea77eff	0.32714078
99	0xbd48f3ea	-0.04906074
100	0x3f503880	0.8133621
101	0x3f31f024	0.6950705
102	0x3daf4fca	0.085601404
103	0x3f51a0ff	0.81886286
104	0x3d54ff83	0.052001487
105	0x3e66e120	0.22546816
106	0x3ee2b7fa	0.44280988
107	0xbf1148ed	-0.567519
108	0xbdf9f3e9	-0.12204725
109	0x3eb4b776	0.3529622
110	0x3f077139	0.5290714
111	0x3e9fede6	0.3123619
112	0xbf010735	-0.5040162
113	0x3e1d1383	0.15339474
114	0x3ea5a9c7	0.32356092
115	0x3dce22d7	0.10065239
116	0x3f370715	0.7149518
117	0xbf67d064	-0.90552354
118	0xbf27bbe6	-0.65521085
119	0x3e25c374	0.1618784
120	0xbee791c2	-0.45228392
121	0xbd74061a	-0.05957613
122	0x3d93a6f5	0.07209579
123	0x3f1aa33e	0.6040534
124	0xbea0c4c5	-0.31400123
125	0x3da2f088	0.07956034
126	0xbf019d21	-0.50630385
127	0xbd3e48e4	-0.046456233
128	0x3c688a85	0.014193182
129	0x3f051e9d	0.5199984
130	0x3e78b782	0.24288753
131	0x3f735566	0.9505218
132	0x3df110fc	0.11770818
133	0x3f213e63	0.6298582
134	0xbe6bd5f7	-0.2303084
135	0xbe9d5e91	-0.3073621
136	0x3da78daf	0.08181321
137	0x3e30166c	0.17196053
138	0x3ea6fd6e	0.32615227
139	0x3e8d666c	0.27617204
140	0x3f1a31de	0.6023234
141	0x3ef613bf	0.4806194
142	0x3e74aa92	0.23893192
143	0x3ea9aef1	0.33141282
144	0x3eaa226b	0.33229384
145	0x3d5f6d61	0.05454767
146	0xbdd3a016	-0.10333268
147	0x3e066afe	0.13126752
148	0x3f56d65b	0.8392083
149	0x3e9ff550	0.31241846
150	0x3eb9c63a	0.36284047
151	0x3d23beb5	0.039976794
152	0x3ef65e84	0.48118985
153	0x3dcd0096	0.100098774
154	0x3f507d65	0.81441337
155	0x3f85ca34	1.0452332
156	0xbe107e3c	-0.14110655
157	0x3f0290a6	0.51001966
158	0xbf444bb9	-0.76678044
159	0xbf2656c8	-0.6497617
160	0xbe4aba5e	-0.19797656
161	0xbe06fad3	-0.1318162
162	0x3f857bf1	1.0428449
163	0xbdba5240	-0.09097719
164	0x3eeec2c9	0.46632984
165	0x3f493249	0.78592354
166	0x3dcaf7cc	0.09910545
167	0x3f7375d9	0.95101696
168	0x3d166ef2	0.0367269
169	0x3f2e6bfe	0.68133533
170	0x3e8ea0b6	0.27856988
171	0xbf1d311c	-0.6140306
172	0x3d2fdfbe	0.042937987
173	0x3ec15244	0.37758076
174	0xbd66464d	-0.056219388
175	0x3e08c238	0.13355339
176	0xbf3d6e7e	-0.7399672
177	0x3f54e897	0.83167404
178	0x3e726fb6	0.23675427
179	0x3e96f3e8	0.2948296
180	0x3e9d1ca2	0.30685908
181	0xbf4b0c08	-0.79315233
182	0xbf3c59d1	-0.7357455
183	0x3ec78152	0.3896585
184	0xbedc765a	-0.43059045
185	0x3c987d6b	0.018614491
186	0xbdc9489b	-0.098283015
187	0x3f5777b5	0.84167033
188	0xbd32e54c	-0.043675706
189	0xba04b28b	-0.00050620054
190	0xbeaaea57	-0.33381912
191	0x3d6ed2e4	0.05830659
192	0xbd22e32e	-0.039767437
193	0x3ee876a0	0.45403004
194	0x3dfff13c	0.12497184
195	0x3f18c807	0.5968022
196	0x3e5d2df8	0.21599567
197	0x3f074ced	0.52851754
198	0xbe32a765	-0.17446668
199	0xbe2906ca	-0.16506496
200	0x3e9b13ae	0.30288452
201	0x3e92d13e	0.28675264
202	0x3e81c273	0.25343665
203	0x3ef5f137	0.48035595
204	0x3f0ca334	0.5493653
205	0x3eb77cc9	0.3583739
206	0x3d824b5d	0.06362031
207	0x3eae40b9	0.34033754
208	0x3eee29ad	0.4651617
209	0x3e480bdf	0.19535778
210	0x3e3b93d3	0.18318109
211	0x3e68cba3	0.22733931
212	0x3f2f4614	0.68466306
213	0x3ec388d7	0.38190338
214	0x3e961370	0.29311705
215	0x3e367968	0.1781975
216	0x3f76b5c9	0.9637113
217	0x3d5ba6ed	0.05362599
218	0x3f1ed000	0.6203613
219	0x3ee3262c	0.4436506
220	0xbe92f5d7	-0.28703186
221	0x3f13b376	0.5769571
222	0xbf5de8bd	-0.86683255
223	0xbf946c35	-1.1595522
224	0xbde9e148	-0.11419922
225	0xbcbc5669	-0.022990422
226	0x3f84c9ca	1.0374081
227	0xbe513d25	-0.20433481
228	0xbdea5ca3	-0.1144345
229	0x3f49e9e0	0.7887249
230	0x3dfe9006	0.12429814
231	0x3f4c0623	0.79696864
232	0x3c9ebcb6	0.019377094
233	0x3f04318d	0.5163811
234	0x3e1849ea	0.14871946
235	0xbef97351	-0.48720792
236	0x3e1a5dae	0.15074798
237	0x3e9dbef7	0.30809757
238	0x3e3c8e37	0.18413626
239	0x3dee076d	0.1162251
240	0xbf681641	-0.90658957
241	0x3eff346d	0.49844685
242	0x3e6a35f6	0.22872147
243	0x3e225b35	0.15855105
244	0x3f18a4f1	0.5962668
245	0xbf282c07	-0.6569218
246	0xbf0b7904	-0.5448153
247	0x3f0c707d	0.54859143
248	0xbe9dd49a	-0.30826265
249	0x3bcfa932	0.0063373083
250	0x3e4b26b1	0.19838978
251	0x3f0d6178	0.5522685
252	0x3c3b6a97	0.011438987
253	0x3e9d7ea6	0.30760688
254	0xbeba279c	-0.36358345
255	0xbd904e02	-0.07046129

fc2.bias f4 [64]
0	0x3d60ed86	0.05491402
1	0xbce631ca	-0.028099913
2	0xbde79d16	-0.11309259
3	0xbc09b16e	-0.008404119
4	0xbd83b342	-0.06430675
5	0xbd931100	-0.07180977
6	0x3e4ef0d4	0.20209056
7	0x3d9ffac3	0.07811501
8	0x3eb7a708	0.35869622
9	0xbdaec7f0	-0.08534229
10	0xbd626764	-0.055274382
11	0xbdfb2ce1	-0.12264419
12	0xbeb0f4dc	-0.34561813
13	0xbe1fd1a6	-0.15607318
14	0xbe62bddb	-0.22142737
15	0x3f9a9e7c	1.2079616
16	0x392bfed9	0.00016402769
17	0x3ef52830	0.47882223
18	0xbe835cbf	-0.25656697
19	0xbd926d97	-0.07149809
20	0xbddef1d8	-0.10885972
21	0xbd3ef207	-0.046617534
22	0x3dd3e135	0.10345689
23	0xbdff1640	-0.12455416
24	0xbe6bab5e	-0.2301459
25	0xbe02718c	-0.12738627
26	0xbe67c478	-0.2263354
27	0xbd703f64	-0.058654204
28	0xbd250894	-0.040291384
29	0xbe1b93df	-0.15193127
30	0xbde03946	-0.10948424
31	0x3dd59f26	0.10430746
32	0xbe06b4a1	-0.13154842
33	0x3f310885	0.69153625
34	0xbdfbd76d	-0.122969486
35	0xbe046c51	-0.12931944
36	0xbc394730	-0.011308476
37	0xbd5b8e95	-0.053602774
38	0xbd5f9f19	-0.054595087
39	0x3de0db4a	0.10979326
40	0xbdc5f5d9	-0.09666032
41	0xbe64b6e5	-0.22335394
42	0x3d94ad76	0.072596475
43	0x3ea498da	0.32147866
44	0xbe64d838	-0.22348106
45	0x3da7f533	0.08201065
46	0x3ea60f16	0.32433385
47	0x3e2d5784	0.16927916
48	0xbde38d3a	-0.11110921
49	0xbf11ab63	-0.5690214
50	0x3d875f90	0.06610024
51	0xbde6f596	-0.112773106
52	0x3ec12977	0.37726948
53	0x3f0a4f77	0.54027504
54	0xbdb91158	-0.09036511
55	0xbe97c4b4	-0.2964226
56	0xbaa9d924	-0.001295839
57	0x3d2ef7b8	0.04271671
58	0xbea0d585	-0.31412902
59	0xbd8838c7	-0.066514544
60	0xbdaf39ed	-0.0855597
61	0xbe1c48f4	-0.15262204
62	0x3f39d514	0.72590756
63	0xbd936889	-0.07197673

fc3.weight f4 [4, 64]
0	0xbf696c17	-0.91180557
1	0xbf57f9d8	-0.84365606
2	0xbf115d79	-0.5678325
3	0xbef551d2	-0.47913986
4	0xbf01c97b	-0.5069806
5	0xbefebc59	-0.49753073
6	0x3fe6715f	1.8003348
7	0xbf0ace21	-0.5422078
8	0x3f4ea2b4	0.80717015
9	0x3d1d0a4c	0.038339898
10	0xbf01d2cd	-0.5071228
11	0xbd933616	-0.071880504
12	0xbeb9d0cd	-0.36292115
13	0xbf1388e4	-0.57630754
14	0x3e566159	0.20935573
15	0x3fc32814	1.5246606
16	0x3d6a665f	0.057226535
17	0xbe3a99f0	-0.18222785
18	0xbea4afd2	-0.3216539
19	0xbed7fa87	-0.42183325
20	0xbf166ea0	-0.5876255
21	0x3d5bb9f1	0.053644124
22	0xbf613f10	-0.8798685
23	0xbc3b2de0	-0.011424512
24	0xbf96d22a	-1.1782887
25	0x3dce44ba	0.10071702
26	0xbc15077b	-0.009096022
27	0xbf52fdba	-0.82418406
28	0xbec82277	-0.39088795
29	0xbf1ad294	-0.60477567
30	0xbee8f0d5	-0.4549624
31	0x404dcf2e	3.2157702
32	0xbf226d94	-0.6344845
33	0x3faf2b83	1.3685154
34	0xbf0d989d	-0.55310994
35	0xbdbbbdda	-0.09167071
36	0xbf21afbe	-0.63158786
37	0xbef38213	-0.47560176
38	0xbf8364c8	-1.0265131
39	0xbf875f07	-1.0575875
40	0xbec32a46	-0.3811819
41	0xbda7acd0	-0.08187258
42	0xbf021c18	-0.5082412
43	0x3f9d0549	1.2267238
44	0xbcf02516	-0.029314559
45	0xbd05f3cc	-0.032703206
46	0xbeb65445	-0.35611168
47	0xbf6feae9	-0.9371782
48	0xbefc1248	-0.49232697
49	0xbee9ae2a	-0.4564069
50	0xbf318b90	-0.6935358
51	0xbf497373	-0.78691787
52	0x405d1386	3.4543166
53	0x3faa0667	1.3283204
54	0xbf397889	-0.7244955
55	0xbf8a7622	-1.0817301
56	0xbf8e286a	-1.1106083
57	0xbec9b0d6	-0.39392728
58	0x3ecf096e	0.40436882
59	0xbef48891	-0.47760442
60	0xbefd5504	-0.49478924
61	0xbf2394f7	-0.6389918
62	0x3fad7534	1.3551393
63	0xbee9f638	-0.45695662
64	0xbeb97084	-0.36218655
65	0xbefd5f63	-0.49486837
66	0xbf075091	-0.5285731
67	0xbf05e55d	-0.52303106
68	0xbf193359	-0.59843975
69	0xbf1af242	-0.60525906
70	0x3f9baf81	1.2162935
71	0xbf5cd87e	-0.8626784
72	0x3f914c53	1.1351417
73	0xbda3d93e	-0.0800042
74	0xbf41e9d6	-0.7574743
75	0xbd1528f7	-0.03641602
76	0xbea43821	-0.32074073
77	0xbf109dc9	-0.5649076
78	0x3f38e296	0.7222074
79	0x3fb6f969	1.4294864
80	0xbd05134d	-0.03248911
81	0xbfbb96a6	-1.4655349
82	0xbedf12f4	-0.43569148
83	0xbf24b02e	-0.6433133
84	0xbf033766	-0.51256406
85	0x3ded9a01	0.116016395
86	0xbeef5336	-0.46743172
87	0xbd7a1240	-0.06105256
88	0xbf8ecfc8	-1.115716
89	0x3d6e8481	0.058231834
90	0xbe60ba5d	-0.21946092
91	0xbeffb33f	-0.4994144
92	0xbf185c13	-0.59515494
93	0xbf2a9794	-0.6663754
94	0xbf66fd12	-0.90229905
95	0x40484a54	3.1295366
96	0xbf273909	-0.65321404
97	0x3f88130f	1.0630816
98	0xbef96729	-0.48711517
99	0x3dde7607	0.10862356
100	0xbf775227	-0.9660973
101	0xbf2fa025	-0.68603736
102	0xbef41e3c	-0.47679317
103	0xbdaaa220	-0.08331704
104	0xbf377ef7	-0.7167811
105	0xbf03a3e4	-0.5142195
106	0xbf1340ef	-0.57520956
107	0x3fdedc2f	1.7410945
108	0xbe7a1d3e	-0.24425218
109	0x3c2f1a60	0.010687441
110	0xbdf83d60	-0.12121081
111	0xbfb4c18e	-1.4121568
112	0xbf199645	-0.5999492
113	0xbf1ad47e	-0.6048049
114	0x3d29cab8	0.041453093
115	0xbed5855d	-0.4170331
116	0x405d2b64	3.4557734
117	0x3fa99095	1.3247248
118	0xbf00145f	-0.50031084
119	0xbe9e7128	-0.30945706
120	0xbf24ab3a	-0.6432377
121	0xbeabe1f8	-0.33570838
122	0xbf46b4ac	-0.77619433
123	0xbf207801	-0.6268311
124	0xbf07fc2e	-0.5311917
125	0xbedbf6f0	-0.42961836
126	0x3fad7d2a	1.3553822
127	0xbf102244	-0.56302285
128	0xbf18ab61	-0.59636503
129	0xbf261741	-0.6487923
130	0xbf260e10	-0.6486521
131	0xbe7fb386	-0.24970827
132	0x3d424d60	0.04743707
133	0xbec4beab	-0.38426718
134	0x3ff23128	1.8921251
135	0xbec78012	-0.38964897
136	0x3fbea56b	1.4894232
137	0x3d98ddaa	0.07464154
138	0xbe4515ef	-0.19246648
139	0x3d0a8ac0	0.03382373
140	0xbe02947c	-0.12751955
141	0xbefd3d29	-0.49460724
142	0xbfacedeb	-1.3510107
143	0x3fbba7be	1.4660566
144	0x3c68338c	0.014172446
145	0xbfb9d947	-1.4519433
146	0xbf11730f	-0.5681619
147	0xbf13d635	-0.5774873
148	0xbe2bbdf0	-0.16771674
149	0x3d9a5b50	0.07536948
150	0xbf305da1	-0.68892866
151	0x3b44366f	0.0029939672
152	0xbf906775	-1.1281573
153	0x3dde8c2a	0.10866578
154	0xbf26878b	-0.6505057
155	0xbf299dba	-0.66256297
156	0xbef9380e	-0.4867558
157	0xbe96cae1	-0.2945166
158	0xbeeaa203	-0.4582673
159	0x40141398	2.313696
160	0xbe4e7675	-0.20162375
161	0x40012f37	2.0185068
162	0xbeca43ed	-0.39504948
163	0xbd41d278	-0.04731986
164	0xbedb1954	-0.4279276
165	0xbf0cc65b	-0.54990166
166	0xbeae3c94	-0.34030592
167	0xbef27258	-0.47352862
168	0xbf10d17e	-0.5656966
169	0xbf276664	-0.6539061
170	0xbf23042a	-0.6367823
171	0x3fcb22f3	1.5870041
172	0xbbf2477e	-0.0073937764
173	0xbb4dfac0	-0.0031429976
174	0xbf6b973b	-0.92027634
175	0xbfd8e330	-1.6944332
176	0xbec7b610	-0.3900609
177	0xbf02f5f8	-0.5115657
178	0xbfac3b5c	-1.3455615
179	0xbf444ba4	-0.7667792
180	0x3fdcec82	1.7259676
181	0x3ef51dee	0.47874397
182	0xbdebdaa1	-0.115163095
183	0xbecac52f	-0.39603564
184	0x3e98bc9d	0.298314
185	0xbf2ae366	-0.6675323
186	0x3e33826c	0.17530221
187	0xbe904cd3	-0.28183612
188	0xbeb7cb73	-0.35897407
189	0xbf094861	-0.53626066
190	0x3f84f464	1.0387082
191	0xbf09d90d	-0.5384682
192	0xbf649936	-0.8929628
193	0xbf5d6350	-0.86479664
194	0xbeb55b1b	-0.3542107
195	0xbefb849e	-0.49124616
196	0xbebfcc1d	-0.37460414
197	0xbeb8a706	-0.3606493
198	0x4001ef8b	2.0302455
199	0xbeca25be	-0.3948192
200	0x3f3a09a9	0.7267099
201	0xbd33bcf0	-0.043881357
202	0xbe364b21	-0.17802097
203	0xbb231280	-0.0024882853
204	0xbf0239a3	-0.50869197
205	0xbedd2c8c	-0.4319805
206	0x3f4fc0b2	0.81153405
207	0x3fb8ddcf	1.4442691
208	0xbc0e7ee9	-0.00869725
209	0x3edc7e64	0.43065178
210	0xbe71dc15	-0.23619111
211	0xbea5b6c1	-0.32365993
212	0xbef31af0	-0.4748149
213	0xbdb5da51	-0.08879531
214	0xbf8a5795	-1.0807978
215	0xbb8ba5c5	-0.0042617046
216	0xbf02a47f	-0.5103225
217	0x3dbe1250	0.092808366
218	0xbf0bd248	-0.5461774
219	0xbf867e2d	-1.0507256
220	0xbea331a6	-0.31873816
221	0xbee06f3e	-0.4383487
222	0xbf82b46a	-1.0211308
223	0x406e6df2	3.7254605
224	0xbe9c10e3	-0.30481634
225	0x3fb426a8	1.4074297
226	0xbf0de3e2	-0.55425847
227	0xbdbbe730	-0.09174955
228	0xbd675323	-0.05647577
229	0xbecd4ba7	-0.4009678
230	0xbf5bc671	-0.8584967
231	0xbfb2fa6b	-1.3982671
232	0xbe696b6e	-0.22794887
233	0x3eba427f	0.36378857
234	0xbf0a41fe	-0.54006946
235	0x3f4ef213	0.80838126
236	0x3e5d456a	0.2160851
237	0xbdd2e839	-0.10298199
238	0xbfc779e6	-1.5584075
239	0xbebfc5f6	-0.3745572
240	0xbea160c7	-0.31519148
241	0x3e9ab058	0.30212665
242	0xbfd3401c	-1.650394
243	0xbf6ab487	-0.9168171
244	0x40672586	3.6116652
245	0x3fcb8eb7	1.5902928
246	0xbf014ab4	-0.5050461
247	0x3ea23314	0.31679595
248	0x3d5e7003	0.05430604
249	0xbf37007d	-0.7148512
250	0x3f8825fc	1.0636592
251	0xbec37131	-0.38172296
252	0xbeb6f9a1	-0.35737327
253	0xbf14a33a	-0.58061564
254	0x3f6e0fc4	0.92992806
255	0xbea64cb2	-0.3248039

fc3.bias f4 [4]
0	0x3ebe6b6d	0.37191334
1	0x3d5f1e02	0.054471977
2	0x3ec57460	0.3856535
3	0xbdd3a5a0	-0.10334325
